…
[38;5;15m  [39m[38;5;197mNUM_WORKERS[39m[38;5;15m:[39m[38;5;15m [39m[38;5;141m4[39m
[38;5;197mVERSION[39m[38;5;15m:[39m[38;5;15m [39m[38;5;141m2[39m

[03/31 12:43:45] detectron2.utils.env INFO: Using a generated random seed 46527448
[03/31 12:43:48] detectron2.engine.defaults INFO: Model:
Detr(
  (detr): DETR(
    (transformer): Transformer(
      (encoder): TransformerEncoder(
        (layers): ModuleList(
          (0): TransformerEncoderLayer(
            (self_attn): MultiheadAttention(
              (out_proj): NonDynamicallyQuantizableLinear(in_features=256, out_features=256, bias=True)
            )
            (linear1): Linear(in_features=256, out_features=2048, bias=True)
            (dropout): Dropout(p=0.1, inplace=False)
            (linear2): Linear(in_features=2048, out_features=256, bias=True)
            (norm1): LayerNorm((256,), eps=1e-05, elementwise_affine=True)
            (norm2): LayerNorm((256,), eps=1e-05, elementwise_affine=True)
            (dropout1): Dropout(p=0.1, inplace=False)
            (dropout2): Dropout(p=0.1, inplace=False)
          )
          (1): TransformerEncoderLayer(
            (self_attn): MultiheadAttention(
              (out_proj): NonDynamicallyQuantizableLinear(in_features=256, out_features=256, bias=True)
            )
            (linear1): Linear(in_features=256, out_features=2048, bias=True)
            (dropout): Dropout(p=0.1, inplace=False)
            (linear2): Linear(in_features=2048, out_features=256, bias=True)
            (norm1): LayerNorm((256,), eps=1e-05, elementwise_affine=True)
            (norm2): LayerNorm((256,), eps=1e-05, elementwise_affine=True)
            (dropout1): Dropout(p=0.1, inplace=False)
            (dropout2): Dropout(p=0.1, inplace=False)
          )
          (2): TransformerEncoderLayer(
            (self_attn): MultiheadAttention(
              (out_proj): NonDynamicallyQuantizableLinear(in_features=256, out_features=256, bias=True)
            )
            (linear1): Linear(in_features=256, out_features=2048, bias=True)
            (dropout): Dropout(p=0.1, inplace=False)
            (linear2): Linear(in_features=2048, out_features=256, bias=True)
            (norm1): LayerNorm((256,), eps=1e-05, elementwise_affine=True)
            (norm2): LayerNorm((256,), eps=1e-05, elementwise_affine=True)
            (dropout1): Dropout(p=0.1, inplace=False)
            (dropout2): Dropout(p=0.1, inplace=False)
          )
          (3): TransformerEncoderLayer(
            (self_attn): MultiheadAttention(
              (out_proj): NonDynamicallyQuantizableLinear(in_features=256, out_features=256, bias=True)
            )
            (linear1): Linear(in_features=256, out_features=2048, bias=True)
            (dropout): Dropout(p=0.1, inplace=False)
            (linear2): Linear(in_features=2048, out_features=256, bias=True)
            (norm1): LayerNorm((256,), eps=1e-05, elementwise_affine=True)
            (norm2): LayerNorm((256,), eps=1e-05, elementwise_affine=True)
            (dropout1): Dropout(p=0.1, inplace=False)
            (dropout2): Dropout(p=0.1, inplace=False)
          )
          (4): TransformerEncoderLayer(
            (self_attn): MultiheadAttention(
              (out_proj): NonDynamicallyQuantizableLinear(in_features=256, out_features=256, bias=True)
            )
            (linear1): Linear(in_features=256, out_features=2048, bias=True)
            (dropout): Dropout(p=0.1, inplace=False)
            (linear2): Linear(in_features=2048, out_features=256, bias=True)
            (norm1): LayerNorm((256,), eps=1e-05, elementwise_affine=True)
            (norm2): LayerNorm((256,), eps=1e-05, elementwise_affine=True)
            (dropout1): Dropout(p=0.1, inplace=False)
            (dropout2): Dropout(p=0.1, inplace=False)
          )
          (5): TransformerEncoderLayer(
            (self_attn): MultiheadAttention(
              (out_proj): NonDynamicallyQuantizableLinear(in_features=256, out_features=256, bias=True)
            )
            (linear1): Linear(in_features=256, out_features=2048, bias=True)
            (dropout): Dropout(p=0.1, inplace=False)
            (linear2): Linear(in_features=2048, out_features=256, bias=True)
            (norm1): LayerNorm((256,), eps=1e-05, elementwise_affine=True)
            (norm2): LayerNorm((256,), eps=1e-05, elementwise_affine=True)
            (dropout1): Dropout(p=0.1, inplace=False)
            (dropout2): Dropout(p=0.1, inplace=False)
          )
        )
      )
      (decoder): TransformerDecoder(
        (layers): ModuleList(
          (0): TransformerDecoderLayer(
            (self_attn): MultiheadAttention(
              (out_proj): NonDynamicallyQuantizableLinear(in_features=256, out_features=256, bias=True)
            )
            (multihead_attn): MultiheadAttention(
              (out_proj): NonDynamicallyQuantizableLinear(in_features=256, out_features=256, bias=True)
            )
            (linear1): Linear(in_features=256, out_features=2048, bias=True)
            (dropout): Dropout(p=0.1, inplace=False)
            (linear2): Linear(in_features=2048, out_features=256, bias=True)
            (norm1): LayerNorm((256,), eps=1e-05, elementwise_affine=True)
            (norm2): LayerNorm((256,), eps=1e-05, elementwise_affine=True)
            (norm3): LayerNorm((256,), eps=1e-05, elementwise_affine=True)
            (dropout1): Dropout(p=0.1, inplace=False)
            (dropout2): Dropout(p=0.1, inplace=False)
            (dropout3): Dropout(p=0.1, inplace=False)
          )
          (1): TransformerDecoderLayer(
            (self_attn): MultiheadAttention(
              (out_proj): NonDynamicallyQuantizableLinear(in_features=256, out_features=256, bias=True)
            )
            (multihead_attn): MultiheadAttention(
              (out_proj): NonDynamicallyQuantizableLinear(in_features=256, out_features=256, bias=True)
            )
            (linear1): Linear(in_features=256, out_features=2048, bias=True)
            (dropout): Dropout(p=0.1, inplace=False)
            (linear2): Linear(in_features=2048, out_features=256, bias=True)
            (norm1): LayerNorm((256,), eps=1e-05, elementwise_affine=True)
            (norm2): LayerNorm((256,), eps=1e-05, elementwise_affine=True)
            (norm3): LayerNorm((256,), eps=1e-05, elementwise_affine=True)
            (dropout1): Dropout(p=0.1, inplace=False)
            (dropout2): Dropout(p=0.1, inplace=False)
            (dropout3): Dropout(p=0.1, inplace=False)
          )
          (2): TransformerDecoderLayer(
            (self_attn): MultiheadAttention(
              (out_proj): NonDynamicallyQuantizableLinear(in_features=256, out_features=256, bias=True)
            )
            (multihead_attn): MultiheadAttention(
              (out_proj): NonDynamicallyQuantizableLinear(in_features=256, out_features=256, bias=True)
            )
            (linear1): Linear(in_features=256, out_features=2048, bias=True)
            (dropout): Dropout(p=0.1, inplace=False)
            (linear2): Linear(in_features=2048, out_features=256, bias=True)
            (norm1): LayerNorm((256,), eps=1e-05, elementwise_affine=True)
            (norm2): LayerNorm((256,), eps=1e-05, elementwise_affine=True)
            (norm3): LayerNorm((256,), eps=1e-05, elementwise_affine=True)
            (dropout1): Dropout(p=0.1, inplace=False)
            (dropout2): Dropout(p=0.1, inplace=False)
            (dropout3): Dropout(p=0.1, inplace=False)
          )
          (3): TransformerDecoderLayer(
            (self_attn): MultiheadAttention(
              (out_proj): NonDynamicallyQuantizableLinear(in_features=256, out_features=256, bias=True)
            )
            (multihead_attn): MultiheadAttention(
              (out_proj): NonDynamicallyQuantizableLinear(in_features=256, out_features=256, bias=True)
            )
            (linear1): Linear(in_features=256, out_features=2048, bias=True)
            (dropout): Dropout(p=0.1, inplace=False)
            (linear2): Linear(in_features=2048, out_features=256, bias=True)
            (norm1): LayerNorm((256,), eps=1e-05, elementwise_affine=True)
            (norm2): LayerNorm((256,), eps=1e-05, elementwise_affine=True)
            (norm3): LayerNorm((256,), eps=1e-05, elementwise_affine=True)
            (dropout1): Dropout(p=0.1, inplace=False)
            (dropout2): Dropout(p=0.1, inplace=False)
            (dropout3): Dropout(p=0.1, inplace=False)
          )
          (4): TransformerDecoderLayer(
            (self_attn): MultiheadAttention(
              (out_proj): NonDynamicallyQuantizableLinear(in_features=256, out_features=256, bias=True)
            )
            (multihead_attn): MultiheadAttention(
              (out_proj): NonDynamicallyQuantizableLinear(in_features=256, out_features=256, bias=True)
            )
            (linear1): Linear(in_features=256, out_features=2048, bias=True)
            (dropout): Dropout(p=0.1, inplace=False)
            (linear2): Linear(in_features=2048, out_features=256, bias=True)
            (norm1): LayerNorm((256,), eps=1e-05, elementwise_affine=True)
            (norm2): LayerNorm((256,), eps=1e-05, elementwise_affine=True)
            (norm3): LayerNorm((256,), eps=1e-05, elementwise_affine=True)
            (dropout1): Dropout(p=0.1, inplace=False)
            (dropout2): Dropout(p=0.1, inplace=False)
            (dropout3): Dropout(p=0.1, inplace=False)
          )
          (5): TransformerDecoderLayer(
            (self_attn): MultiheadAttention(
              (out_proj): NonDynamicallyQuantizableLinear(in_features=256, out_features=256, bias=True)
            )
            (multihead_attn): MultiheadAttention(
              (out_proj): NonDynamicallyQuantizableLinear(in_features=256, out_features=256, bias=True)
            )
            (linear1): Linear(in_features=256, out_features=2048, bias=True)
            (dropout): Dropout(p=0.1, inplace=False)
            (linear2): Linear(in_features=2048, out_features=256, bias=True)
            (norm1): LayerNorm((256,), eps=1e-05, elementwise_affine=True)
            (norm2): LayerNorm((256,), eps=1e-05, elementwise_affine=True)
            (norm3): LayerNorm((256,), eps=1e-05, elementwise_affine=True)
            (dropout1): Dropout(p=0.1, inplace=False)
            (dropout2): Dropout(p=0.1, inplace=False)
            (dropout3): Dropout(p=0.1, inplace=False)
          )
        )
        (norm): LayerNorm((256,), eps=1e-05, elementwise_affine=True)
      )
    )
    (class_embed): Linear(in_features=256, out_features=6, bias=True)
    (bbox_embed): MLP(
      (layers): ModuleList(
        (0): Linear(in_features=256, out_features=256, bias=True)
        (1): Linear(in_features=256, out_features=256, bias=True)
        (2): Linear(in_features=256, out_features=4, bias=True)
      )
    )
    (query_embed): Embedding(100, 256)
    (input_proj): Conv2d(2048, 256, kernel_size=(1, 1), stride=(1, 1))
    (backbone): Joiner(
      (0): MaskedBackbone(
        (backbone): ResNet(
          (stem): BasicStem(
            (conv1): Conv2d(
              3, 64, kernel_size=(7, 7), stride=(2, 2), padding=(3, 3), bias=False
              (norm): FrozenBatchNorm2d(num_features=64, eps=1e-05)
            )
          )
          (res2): Sequential(
            (0): BottleneckBlock(
              (shortcut): Conv2d(
                64, 256, kernel_size=(1, 1), stride=(1, 1), bias=False
                (norm): FrozenBatchNorm2d(num_features=256, eps=1e-05)
              )
              (conv1): Conv2d(
                64, 64, kernel_size=(1, 1), stride=(1, 1), bias=False
                (norm): FrozenBatchNorm2d(num_features=64, eps=1e-05)
              )
              (conv2): Conv2d(
                64, 64, kernel_size=(3, 3), stride=(1, 1), padding=(1, 1), bias=False
                (norm): FrozenBatchNorm2d(num_features=64, eps=1e-05)
              )
              (conv3): Conv2d(
                64, 256, kernel_size=(1, 1), stride=(1, 1), bias=False
                (norm): FrozenBatchNorm2d(num_features=256, eps=1e-05)
              )
            )
            (1): BottleneckBlock(
              (conv1): Conv2d(
                256, 64, kernel_size=(1, 1), stride=(1, 1), bias=False
                (norm): FrozenBatchNorm2d(num_features=64, eps=1e-05)
              )
              (conv2): Conv2d(
                64, 64, kernel_size=(3, 3), stride=(1, 1), padding=(1, 1), bias=False
                (norm): FrozenBatchNorm2d(num_features=64, eps=1e-05)
              )
              (conv3): Conv2d(
                64, 256, kernel_size=(1, 1), stride=(1, 1), bias=False
                (norm): FrozenBatchNorm2d(num_features=256, eps=1e-05)
              )
            )
            (2): BottleneckBlock(
              (conv1): Conv2d(
                256, 64, kernel_size=(1, 1), stride=(1, 1), bias=False
                (norm): FrozenBatchNorm2d(num_features=64, eps=1e-05)
              )
              (conv2): Conv2d(
                64, 64, kernel_size=(3, 3), stride=(1, 1), padding=(1, 1), bias=False
                (norm): FrozenBatchNorm2d(num_features=64, eps=1e-05)
              )
              (conv3): Conv2d(
                64, 256, kernel_size=(1, 1), stride=(1, 1), bias=False
                (norm): FrozenBatchNorm2d(num_features=256, eps=1e-05)
              )
            )
          )
          (res3): Sequential(
            (0): BottleneckBlock(
              (shortcut): Conv2d(
                256, 512, kernel_size=(1, 1), stride=(2, 2), bias=False
                (norm): FrozenBatchNorm2d(num_features=512, eps=1e-05)
              )
              (conv1): Conv2d(
                256, 128, kernel_size=(1, 1), stride=(1, 1), bias=False
                (norm): FrozenBatchNorm2d(num_features=128, eps=1e-05)
              )
              (conv2): Conv2d(
                128, 128, kernel_size=(3, 3), stride=(2, 2), padding=(1, 1), bias=False
                (norm): FrozenBatchNorm2d(num_features=128, eps=1e-05)
              )
              (conv3): Conv2d(
                128, 512, kernel_size=(1, 1), stride=(1, 1), bias=False
                (norm): FrozenBatchNorm2d(num_features=512, eps=1e-05)
              )
            )
            (1): BottleneckBlock(
              (conv1): Conv2d(
                512, 128, kernel_size=(1, 1), stride=(1, 1), bias=False
                (norm): FrozenBatchNorm2d(num_features=128, eps=1e-05)
              )
              (conv2): Conv2d(
                128, 128, kernel_size=(3, 3), stride=(1, 1), padding=(1, 1), bias=False
                (norm): FrozenBatchNorm2d(num_features=128, eps=1e-05)
              )
              (conv3): Conv2d(
                128, 512, kernel_size=(1, 1), stride=(1, 1), bias=False
                (norm): FrozenBatchNorm2d(num_features=512, eps=1e-05)
              )
            )
            (2): BottleneckBlock(
              (conv1): Conv2d(
                512, 128, kernel_size=(1, 1), stride=(1, 1), bias=False
                (norm): FrozenBatchNorm2d(num_features=128, eps=1e-05)
              )
              (conv2): Conv2d(
                128, 128, kernel_size=(3, 3), stride=(1, 1), padding=(1, 1), bias=False
                (norm): FrozenBatchNorm2d(num_features=128, eps=1e-05)
              )
              (conv3): Conv2d(
                128, 512, kernel_size=(1, 1), stride=(1, 1), bias=False
                (norm): FrozenBatchNorm2d(num_features=512, eps=1e-05)
              )
            )
            (3): BottleneckBlock(
              (conv1): Conv2d(
                512, 128, kernel_size=(1, 1), stride=(1, 1), bias=False
                (norm): FrozenBatchNorm2d(num_features=128, eps=1e-05)
              )
              (conv2): Conv2d(
                128, 128, kernel_size=(3, 3), stride=(1, 1), padding=(1, 1), bias=False
                (norm): FrozenBatchNorm2d(num_features=128, eps=1e-05)
              )
              (conv3): Conv2d(
                128, 512, kernel_size=(1, 1), stride=(1, 1), bias=False
                (norm): FrozenBatchNorm2d(num_features=512, eps=1e-05)
              )
            )
          )
          (res4): Sequential(
            (0): BottleneckBlock(
              (shortcut): Conv2d(
                512, 1024, kernel_size=(1, 1), stride=(2, 2), bias=False
                (norm): FrozenBatchNorm2d(num_features=1024, eps=1e-05)
              )
              (conv1): Conv2d(
                512, 256, kernel_size=(1, 1), stride=(1, 1), bias=False
                (norm): FrozenBatchNorm2d(num_features=256, eps=1e-05)
              )
              (conv2): Conv2d(
                256, 256, kernel_size=(3, 3), stride=(2, 2), padding=(1, 1), bias=False
                (norm): FrozenBatchNorm2d(num_features=256, eps=1e-05)
              )
              (conv3): Conv2d(
                256, 1024, kernel_size=(1, 1), stride=(1, 1), bias=False
                (norm): FrozenBatchNorm2d(num_features=1024, eps=1e-05)
              )
            )
            (1): BottleneckBlock(
              (conv1): Conv2d(
                1024, 256, kernel_size=(1, 1), stride=(1, 1), bias=False
                (norm): FrozenBatchNorm2d(num_features=256, eps=1e-05)
              )
              (conv2): Conv2d(
                256, 256, kernel_size=(3, 3), stride=(1, 1), padding=(1, 1), bias=False
                (norm): FrozenBatchNorm2d(num_features=256, eps=1e-05)
              )
              (conv3): Conv2d(
                256, 1024, kernel_size=(1, 1), stride=(1, 1), bias=False
                (norm): FrozenBatchNorm2d(num_features=1024, eps=1e-05)
              )
            )
            (2): BottleneckBlock(
              (conv1): Conv2d(
                1024, 256, kernel_size=(1, 1), stride=(1, 1), bias=False
                (norm): FrozenBatchNorm2d(num_features=256, eps=1e-05)
              )
              (conv2): Conv2d(
                256, 256, kernel_size=(3, 3), stride=(1, 1), padding=(1, 1), bias=False
                (norm): FrozenBatchNorm2d(num_features=256, eps=1e-05)
              )
              (conv3): Conv2d(
                256, 1024, kernel_size=(1, 1), stride=(1, 1), bias=False
                (norm): FrozenBatchNorm2d(num_features=1024, eps=1e-05)
              )
            )
            (3): BottleneckBlock(
              (conv1): Conv2d(
                1024, 256, kernel_size=(1, 1), stride=(1, 1), bias=False
                (norm): FrozenBatchNorm2d(num_features=256, eps=1e-05)
              )
              (conv2): Conv2d(
                256, 256, kernel_size=(3, 3), stride=(1, 1), padding=(1, 1), bias=False
                (norm): FrozenBatchNorm2d(num_features=256, eps=1e-05)
              )
              (conv3): Conv2d(
                256, 1024, kernel_size=(1, 1), stride=(1, 1), bias=False
                (norm): FrozenBatchNorm2d(num_features=1024, eps=1e-05)
              )
            )
            (4): BottleneckBlock(
              (conv1): Conv2d(
                1024, 256, kernel_size=(1, 1), stride=(1, 1), bias=False
                (norm): FrozenBatchNorm2d(num_features=256, eps=1e-05)
              )
              (conv2): Conv2d(
                256, 256, kernel_size=(3, 3), stride=(1, 1), padding=(1, 1), bias=False
                (norm): FrozenBatchNorm2d(num_features=256, eps=1e-05)
              )
              (conv3): Conv2d(
                256, 1024, kernel_size=(1, 1), stride=(1, 1), bias=False
                (norm): FrozenBatchNorm2d(num_features=1024, eps=1e-05)
              )
            )
            (5): BottleneckBlock(
              (conv1): Conv2d(
                1024, 256, kernel_size=(1, 1), stride=(1, 1), bias=False
                (norm): FrozenBatchNorm2d(num_features=256, eps=1e-05)
              )
              (conv2): Conv2d(
                256, 256, kernel_size=(3, 3), stride=(1, 1), padding=(1, 1), bias=False
                (norm): FrozenBatchNorm2d(num_features=256, eps=1e-05)
              )
              (conv3): Conv2d(
                256, 1024, kernel_size=(1, 1), stride=(1, 1), bias=False
                (norm): FrozenBatchNorm2d(num_features=1024, eps=1e-05)
              )
            )
          )
          (res5): Sequential(
            (0): BottleneckBlock(
              (shortcut): Conv2d(
                1024, 2048, kernel_size=(1, 1), stride=(2, 2), bias=False
                (norm): FrozenBatchNorm2d(num_features=2048, eps=1e-05)
              )
              (conv1): Conv2d(
                1024, 512, kernel_size=(1, 1), stride=(1, 1), bias=False
                (norm): FrozenBatchNorm2d(num_features=512, eps=1e-05)
              )
              (conv2): Conv2d(
                512, 512, kernel_size=(3, 3), stride=(2, 2), padding=(1, 1), bias=False
                (norm): FrozenBatchNorm2d(num_features=512, eps=1e-05)
              )
              (conv3): Conv2d(
                512, 2048, kernel_size=(1, 1), stride=(1, 1), bias=False
                (norm): FrozenBatchNorm2d(num_features=2048, eps=1e-05)
              )
            )
            (1): BottleneckBlock(
              (conv1): Conv2d(
                2048, 512, kernel_size=(1, 1), stride=(1, 1), bias=False
                (norm): FrozenBatchNorm2d(num_features=512, eps=1e-05)
              )
              (conv2): Conv2d(
                512, 512, kernel_size=(3, 3), stride=(1, 1), padding=(1, 1), bias=False
                (norm): FrozenBatchNorm2d(num_features=512, eps=1e-05)
              )
              (conv3): Conv2d(
                512, 2048, kernel_size=(1, 1), stride=(1, 1), bias=False
                (norm): FrozenBatchNorm2d(num_features=2048, eps=1e-05)
              )
            )
            (2): BottleneckBlock(
              (conv1): Conv2d(
                2048, 512, kernel_size=(1, 1), stride=(1, 1), bias=False
                (norm): FrozenBatchNorm2d(num_features=512, eps=1e-05)
              )
              (conv2): Conv2d(
                512, 512, kernel_size=(3, 3), stride=(1, 1), padding=(1, 1), bias=False
                (norm): FrozenBatchNorm2d(num_features=512, eps=1e-05)
              )
              (conv3): Conv2d(
                512, 2048, kernel_size=(1, 1), stride=(1, 1), bias=False
                (norm): FrozenBatchNorm2d(num_features=2048, eps=1e-05)
              )
            )
          )
        )
      )
      (1): PositionEmbeddingSine()
    )
  )
  (criterion): SetCriterion(
    (matcher): HungarianMatcher()
  )
)
[03/31 12:44:04] detectron2.data.datasets.coco INFO: Loading /dccstor/arrow_backup/images/json_annotation.json takes 16.35 seconds.
…
